back/ai_back/models/value.pth (torch, 189923 bytes, 3 tensors)

embedding.weight f4 [734, 64]
0.09496999 0.17018771 -0.45621455 0.487247 -0.36230123 -0.45755428 0.018409252 0.4698162
-0.17983627 -0.31046796 -0.048463285 -0.3500498 -0.15843415 -0.2782132 0.4333117 -0.2961653
0.1298343 -0.008798659 0.43209153 0.23651028 -0.022839308 0.45055276 -0.37456346 0.1721161
-0.2857747 -0.23429716 0.05682504 0.102190316 0.15145254 0.082062185 -0.34211004 0.47195566
0.119815886 0.3006283 0.36596882 0.3582306 0.46532106 -0.29744565 -0.10976726 -0.17403167
-0.18905813 -0.041947424 -0.10005516 -0.11344403 -0.4749598 -0.3695488 0.2591688 0.3887046
0.43536973 -0.1431089 -0.13235408 -0.20110357 0.44001204 -0.21361166 0.13735163 0.4972217
0.45476556 -0.35139441 -0.1979546 -0.078077674 0.03877127 -0.36077738 0.07047337 0.056892753
0.008108123 -0.44280246 0.026145108 -0.5359452 -0.21823205 -0.26937976 -0.4086714 -0.31855977
-0.14283027 -0.20411299 0.20220235 -0.16336036 0.019345086 0.3693835 0.47074372 -0.49951175
-0.0146824 -0.49226907 0.33235714 0.41052502 0.09041182 -0.07784486 0.3802918 -0.06439817
0.35335407 0.0007425202 0.33845317 -0.31165758 0.12199681 0.30872956 -0.33257753 -0.10414568
0.42413446 0.15124929 -0.6397686 0.27714616 -0.094349384 0.16048591 0.07345212 -0.29435796
0.5048728 -0.3160951 0.6310455 0.32032835 -0.19722949 0.30011564 0.008025692 -0.28399467
-0.088155486 -0.33967802 -0.41295397 0.6473062 0.12206314 0.16471095 -0.20994861 0.39082095
-0.044401836 0.37063673 -0.20940368 0.59609085 0.030599453 -0.05416874 0.29499558 -0.19721703
-0.074066274 -0.32722342 0.07925414 -0.31911156 0.08358776 -0.25901908 -0.5216643 -0.06725636
-0.027141789 -0.30571955 0.2010885 -0.17521009 0.4544132 -0.26284584 0.6269271 0.25425836
-0.35638663 -0.21776678 -0.1128348 -0.31120932 0.2210942 -0.52420944 -0.009632529 0.0023909728
-0.5255691 0.47615433 0.48951507 0.3745647 -0.36102837 -0.06380631 -0.38458902 -0.4339436
0.06448073 0.6229028 -0.25202227 -0.07844627 -0.31368995 0.13039479 0.29339525 0.44329992
-0.26955798 0.21219929 0.09150779 -0.37765405 -0.0066573503 -0.21853922 0.20311694 -0.5428357
-0.012178251 -0.11509216 -0.06827103 0.1473302 -0.17536967 -0.17966776 -0.4899724 0.25478587
0.3955922 0.30983007 0.18642479 -0.0025870705 0.3741145 -0.047230985 0.053217106 0.2514334
0.019043693 -0.043396045 0.06200228 -0.51035565 -0.18076405 0.28255817 -0.082892105 -0.19698684
0.43402907 0.33807814 -0.16028462 0.02566856 0.40369582 -0.21351644 0.5079044 0.053656682
0.060595404 -0.50112677 0.32744852 -0.31087887 -0.10929032 0.051909927 0.29103062 -0.32384267
0.122568905 0.3453398 0.075488396 0.0060373126 -0.23858096 0.32013845 -0.52539897 -0.036796976
-0.098287106 0.062508106 0.20582996 0.17015596 0.3385633 0.25345424 -0.18113582 -0.3219724
0.31654269 -0.1003976 0.28747508 -0.27740285 0.26589665 0.29521304 -0.14795376 0.07986791
-0.034455813 0.00849828 0.3100807 0.15498623 -0.062682934 -0.042818848 0.0005063338 0.0753776
-0.35767785 0.10496796 0.29967824 -0.05157991 0.3435052 -0.2916508 -0.01422711 -0.25952712
00000000: a07f c23d b045 2e3e f494 e9be 7078 f93e
00000010: 8c7f b9be 8e44 eabe 00cf 963c c08b f03e
00000020: 0027 38be a8f5 9ebe 7081 46bd ba39 b3be
00000030: 903c 22be f671 8ebe 08db dd3e faa2 97be
00000040: 48f3 043e 4028 10bc 1a3b dd3e c02f 723e
00000050: 8019 bbbc daae e63e c8c6 bfbe 343f 303e
00000060: 1051 92be 98eb 6fbe 60c1 683d 2849 d13d
00000070: 6016 1b3e 3810 a83d 0c29 afbe 2ca4 f13e
00000080: 0862 f53d f4eb 993e 4460 bb3e 006a b73e
00000090: 903e ee3e cc4a 98be a8cd e0bd 5c35 32be
000000a0: 7498 41be 10d1 2bbd b8e9 ccbd 5855 e8bd
000000b0: ee2d f3be 8035 bdbe c6b1 843e 4a04 c73e
000000c0: c8e8 de3e 248b 12be d487 07be 18ee 4dbe
000000d0: 4249 e13e 04bd 5abe e8a5 0c3e d893 fe3e
000000e0: 08d7 e83e f8e9 b3be 9cb4 4abe 30e7 9fbd
000000f0: a0ce 1e3d d0b7 b8be 5854 903d 6008 693d
00000100: efd7 043c 01b7 e2be 442e d63c b433 09bf
00000110: 3978 5fbe 25ec 89be 613d d1be 441a a3be
00000120: 1942 12be ff02 51be 220e 4f3e f047 27be
00000130: 9679 9e3c d61f bd3e 5205 f13e 01c0 ffbe
00000140: 738e 70bc b10a fcbe b72a aa3e 5630 d23e
00000150: d529 b93d 206d 9fbd 9bb5 c23e 30e3 83bd
00000160: d3ea b43e b0a5 423a bc49 ad3e 9591 9fbe
00000170: 77d9 f93d cd11 9e3e 9a47 aabe 554a d5bd
00000180: 2728 d93e 18e1 1a3e e0c7 23bf 1ae6 8d3e
00000190: 403a c1bd 6b56 243e 116e 963d 16b6 96be
000001a0: 583f 013f 38d7 a1be 338c 213f 1402 a43e
000001b0: 87f6 49be c2a8 993e 317e 033c c067 91be
000001c0: dd8a b4bd 47ea adbe b46e d3be dcb5 253f
000001d0: 3dfc f93d fda9 283e c5fc 56be af19 c83e
000001e0: b3de 35bd 19c4 bd3e eb6d 56be 6999 183f
000001f0: b4ab fa3c 0ae0 5dbd a909 973e 43f3 49be
00000200: 0fb0 97bd d489 a7be ff4f a23d 9762 a3be
00000210: 0f30 ab3d 269e 84be cb8b 05bf b4bd 89bd
00000220: 7558 debc 4687 9cbe 25ea 4d3e 466a 33be
00000230: d9a8 e83e bb93 86be 4b7e 203f 272e 823e
00000240: 4f78 b6be 41fe 5ebe ee15 e7bd d456 9fbe
00000250: 8566 623e 9732 06bf c1d1 1dbc deb1 1c3b
00000260: b28b 06bf 80ca f33e b8a1 fa3e f2c6 bf3e
00000270: b6d8 b8be e2ac 82bd dae8 c4be db2d debe
00000280: 790e 843d 8f76 1f3f 1009 81be 70a8 a0bd
00000290: f89b a0be 3686 053e e737 963e 35f8 e23e
000002a0: 8103 8abe c54a 593e 7068 bb3d df5b c1be
000002b0: e725 dabb bfc8 5fbe e3fd 4f3e 48f7 0abf
000002c0: 4987 47bc 70b5 ebbd afd1 8bbd badd 163e
000002d0: 1b94 33be d3fa 37be aadd fabe 4b73 823e
000002e0: 108b ca3e 0ca2 9e3e 24e6 3e3e d78b 29bb
000002f0: f08b bf3e 4775 41bd 2efa 593d e1bb 803e
00000300: 8501 9c3c 0dc0 31bd 1af6 7d3d aba6 02bf
00000310: 361a 39be 77ab 903e 56c3 a9bd ebb6 49be
00000320: 0f39 de3e 9418 ad3e a721 24be df46 d23c
00000330: 38b1 ce3e 0ea4 5abe 0606 023f 1cc7 5b3d
00000340: e332 783d d849 00bf 55a7 a73e 842b 9fbe
00000350: 9ad3 dfbd 819f 543d f701 953e b5ce a5be
00000360: 6805 fb3d 61d0 b03e a999 9a3d a6d4 c53b
00000370: 914e 74be 30e9 a33e 8c80 06bf 6db8 16bd
00000380: c04a c9bd 4004 803d 17c5 523e 5d3d 2e3e
00000390: 2b58 ad3e c1c4 813e ab7b 39be 91d9 a4be
000003a0: e211 a23e 429d cdbd ef2f 933e bf07 8ebe
000003b0: 9b23 883e 2a26 973e 3181 17be c991 a33d
000003c0: 8a21 0dbd 5f3c 0b3c e6c2 9e3e b6b4 1e3e
000003d0: e95f 80bd d162 2fbd 7cbb 043a 925f 9a3d
000003e0: 8d21 b7be 71f9 d63d 6d6f 993e 7545 53bd
000003f0: eadf af3e 4153 95be d318 69bc bde0 84be

fc.weight f4 [3, 64]
-1.8199054 0.046899404 -0.6543368 1.2356586 0.34766352 0.8354162 -0.7535078 0.36719283
0.056889664 1.2726963 1.5487008 -0.088708594 0.32259014 -0.34658867 -0.31429067 0.3449758
-1.1500505 0.79017615 0.47403935 1.424103 -0.6904842 1.8782694 1.4453353 -0.35446218
-0.20288491 0.15610993 0.33557326 0.8192578 -0.36317334 -1.0277485 1.6715657 -0.5206042
-0.7602957 -0.31658036 0.53879774 0.29351285 -0.16981196 0.9366376 0.9386143 -1.7282705
-0.7103648 0.9171558 -1.104996 1.604524 0.045765392 0.38082758 0.13608134 -0.80366
-0.8470834 -1.1471103 -0.48568854 0.14533596 0.021909043 1.0999281 1.554005 0.6315601
1.6151758 1.4889245 0.5685056 -0.18612237 -0.71307003 0.30646494 1.1375005 0.75304437
1.7173105 0.49664247 -1.2789212 0.4032433 -1.9246176 -1.4229848 3.4734619 0.6166991
-0.6395613 0.0028044432 -1.0172493 1.5716726 -0.32817164 -0.35236722 -0.8508303 0.23787226
0.682216 0.41710925 -1.4510487 -0.69601655 -0.770139 -0.57698333 -0.45189124 0.40268221
0.16742498 -0.32488427 -1.1555219 -0.551262 0.08340613 -0.42749405 0.099446855 1.039384
2.2808921 -0.7276897 0.20868656 -0.24903764 0.43900427 0.13685161 0.46318695 2.0624063
1.1001726 -0.97221935 -0.69122934 -0.5163565 0.4679338 0.7937525 0.4981787 1.7120249
-0.058363788 0.34674636 -0.74337333 -1.1984006 1.21046 -0.6937731 -0.55411625 0.236815
-0.5048191 -0.9727326 -0.90544534 -1.6314068 0.60868233 0.082816675 -0.50650597 -0.52017134
-0.00094779755 -0.73429 2.4455938 -1.9714557 0.5004863 1.3933117 -3.0809677 -0.7158633
1.6539122 -0.9549862 -0.51363724 -0.4830335 0.38448584 1.1805221 0.54794496 -0.5614635
0.2014388 -1.0377333 1.7814274 0.013683631 1.3062792 -0.38654017 -0.27405027 -0.50761974
-0.5860313 0.2530769 1.2009047 -1.1150935 0.13795567 1.1540182 -1.7622149 -1.1274928
-0.5442904 0.951132 -1.1579353 -0.37722945 -0.1033988 -0.91078645 -1.3869307 -0.21133156
-0.51422125 -0.92990917 1.6205729 -0.40144923 -0.73417425 -0.9790288 0.14559911 -1.153285
0.27670366 0.35442832 0.7462184 1.0970446 -0.9750758 -0.07767308 -1.0591388 -0.5502585
-0.42586046 -0.76124144 0.18532899 1.3040597 0.13923544 -0.20056967 -0.9797316 -0.3571404
00000000: a9f2 e8bf 9719 403d 9e82 27bf 102a 9e3f
00000010: f400 b23e d6dd 553f e3e5 40bf b300 bc3e
00000020: 2305 693d b6e7 a23f d43b c63f daac b5bd
00000030: 892a a53e 1274 b1be b5ea a0be aba0 b03e
00000040: db34 93bf fc48 4a3f 49b5 f23e 0249 b63f
00000050: 93c3 30bf 226b f03f bf00 b93f 117c b5be
00000060: 10c1 4fbe 48db 1f3e 42d0 ab3e e1ba 513f
00000070: dbf1 b9be 438d 83bf ddf5 d53f 5146 05bf
00000080: bda2 42bf d216 a2be a6ee 093f 5147 963e
00000090: 30e3 2dbe 7bc7 6f3f 0749 703f f837 ddbf
000000a0: 78da 35bf b9ca 6a3f 8270 8dbf 0b61 cd3f
000000b0: 7e74 3b3d d5fb c23e e858 0b3e a9bc 4dbf
000000c0: 75da 58bf 83d4 92bf 2bac f8be f3d2 143e
000000d0: 987a b33c 72ca 8c3f a3e9 c63f ecad 213f
000000e0: 15be ce3f 1495 be3f 9589 113f dd96 3ebe
000000f0: c28b 36bf f9e8 9c3e 9e99 913f 84c7 403f
00000100: d5d0 db3f ec47 fe3e b1b3 a3bf e875 ce3e
00000110: df59 f6bf 5e24 b6bf 334d 5e40 fedf 1d3f
00000120: 4aba 23bf c0ca 373b 3a35 82bf 912c c93f
00000130: 1d06 a8be 7a69 b4be 04d0 59bf c994 733e
00000140: b5a5 2e3f 588f d53e f7bb b9bf 242e 32bf
00000150: d427 45bf 2eb5 13bf 4a5e e7be 5d2c ce3e
00000160: 7471 2b3e 3b57 a6be 24e8 93bf 821f 0dbf
00000170: d5d0 aa3d 80e0 dabe cbaa cb3d 890a 853f
00000180: 23fa 1140 df49 3abf eeb1 553e b903 7fbe
00000190: 2bc5 e03e d422 0c3e d726 ed3e 77fe 0340
000001a0: 75d2 8c3f 5ee3 78bf 68f4 30bf f12f 04bf
000001b0: 0595 ef3e 5d33 4b3f 4711 ff3e a223 db3f
000001c0: de0e 6fbd bd88 b13e b74d 3ebf 3165 99bf
000001d0: 5af0 9a3f 1d9b 31bf 90da 0dbf a27f 723e
000001e0: d33b 01bf 0105 79bf 44cb 67bf f0d1 d0bf
000001f0: 9bd2 1b3f ca9b a93d 60aa 01bf f329 05bf
00000200: 9e75 78ba 6efa 3bbf 9c84 1c40 a958 fcbf
00000210: df1f 003f 0a58 b23f 932e 45c0 d142 37bf
00000220: 65b3 d33f fa79 74bf bb7d 03bf 2b50 f7be
00000230: 54db c43e 591b 973f 1f46 0c3f 12bc 0fbf
00000240: f945 4e3e 72d4 84bf d005 e43f 4f31 603c
00000250: 2834 a73f 98e8 c5be 5150 8cbe 5ef3 01bf
00000260: 2606 16bf 4c93 813e 3fb7 993f 62bb 8ebf
00000270: 4044 0d3e deb6 933f 4290 e1bf af51 90bf
00000280: 9e56 0bbf 637d 733f 3937 94bf 3824 c1be
00000290: c0c2 d3bd 4d29 69bf f286 b1bf 4d67 58be
000002a0: 01a4 03bf 870e 6ebf ef6e cf3f c18a cdbe
000002b0: d8f2 3bbf a2a1 7abf ef17 153e d89e 93bf
000002c0: 1aac 8d3e a177 b53e 2b08 3f3f f56b 8c3f
000002d0: 919e 79bf 1013 9fbd dc91 87bf bedd 0cbf
000002e0: 620a dabe b8e0 42bf e2c6 3d3e 6eeb a63f
000002f0: bc93 0e3e 2362 4dbe b1cf 7abf 1bdb b6be

fc.bias f4 [3]
-2.3044872 1.4622566 0.84223634
00000000: b87c 13c0 392b bb3f cd9c 573f
